dqn_humanoid.pth (torch, 588563 bytes, 8 tensors)

model.0.weight f4 [256, 16]
-0.17211676 -0.04253915 -0.06622809 0.07075772 -0.22060403 0.099053204 0.020449072 0.24003059
0.07704437 0.0019058287 -0.20906422 -0.030434608 0.008503646 0.012031794 -0.12996307 -0.23190719
0.16034228 -0.11794683 0.18281251 -0.09308049 -0.009515166 0.15253016 0.063970625 -0.22771946
-0.16233844 0.100458175 -0.048010886 0.0042757094 0.05508855 0.06769019 -0.1544027 -0.19334275
-0.04745373 0.078160346 0.13495827 -0.13361514 0.043994874 -0.2331653 -0.21831629 -0.07663435
0.20571834 -0.20257396 -0.22306946 0.22390488 0.16347677 -0.14355266 0.16174945 -0.030708283
0.035320252 -0.0018536448 0.05499524 -0.24174571 0.17549619 0.22455844 0.24197212 0.09584105
0.036977947 0.19899234 -0.07821414 0.028372705 0.02924791 0.04126823 -0.15912619 0.20352203
-0.18857035 0.061487526 -0.23271123 0.18758819 0.08221662 -0.0892818 0.18725711 -0.018696547
-0.17990968 0.1841507 0.22471303 0.16342342 -0.21237129 -0.15083805 -0.20675299 0.24044952
0.0033863783 -0.2154783 -0.15584514 -0.22860542 -0.23349595 0.16177332 0.16445562 -0.21516961
-0.23819944 -0.12904158 0.0083221495 0.05971551 0.105921865 -0.13733715 0.16936982 0.20212364
0.2187599 0.21597084 -0.20512712 -0.22706172 -0.19653493 0.22428766 0.12886646 0.068676084
-0.050252378 0.027810514 0.103455365 0.14722395 0.18996212 -0.059309572 0.17830697 -0.12667084
-0.17344326 -0.2212826 -0.11974162 0.19128302 0.24879849 0.07373041 0.0702509 -0.09611693
-0.06042531 0.048476785 -0.10706031 -0.121886104 -0.23514146 0.1904895 0.13285342 0.022856444
-0.163044 -0.07724157 -0.18005359 -0.20649084 -0.1666702 0.18303004 -0.19355085 0.24706957
0.124947935 0.04782304 0.005333096 -0.18151584 -0.065182894 -0.01741448 -0.03861615 -0.0865697
-0.010787636 -0.21596032 -0.2096695 0.14678508 -0.15726197 0.1458273 -0.065102965 0.15622965
-0.20900682 -0.15515324 -0.07115677 -0.052696854 -0.1971066 0.14604643 0.24967203 0.23314556
0.1072759 -0.085228354 -0.15074286 0.052700758 0.029175729 -0.20826063 0.054862887 0.1712546
-0.23028839 -0.19797266 -0.22967955 -0.121830046 -0.24960563 -0.034018397 0.11900142 0.060032904
0.114993304 -0.24541652 0.0002194941 0.20751902 0.15272683 0.22045422 -0.03641188 -0.10099369
0.13968438 0.07795569 -0.13932997 -0.2345236 -0.17193219 0.19562775 -0.09696409 -0.18326959
-0.20072034 -0.22689691 -0.10156265 -0.1582633 -0.114476144 -0.10676199 -0.0059079826 -0.11445683
0.11669165 -0.18279743 -0.055090636 0.035742044 0.16157916 0.006707877 -0.1419431 -0.12820327
0.18330875 -0.15322503 0.14491305 0.006379217 0.23926392 0.008284092 -0.230964 -0.2398527
-0.064263165 0.10271087 -0.13644987 -0.1297304 0.24972984 0.052559763 0.14853293 0.10134086
0.038271546 -0.1331538 0.022938788 -0.20299932 -0.0005865097 -0.021642983 0.18487063 0.024161786
0.09156567 0.028801799 -0.006200999 0.198448 0.01841122 -0.19409853 -0.0824382 0.15492508
-0.13363343 -0.2262845 -0.07299125 -0.11254451 -0.045133024 -0.082677424 0.0058397055 0.028715312
-0.15898848 0.15564013 -0.05005008 0.0020956397 -0.22856444 -0.22452936 0.10095194 0.12175533
00000000: 603f 30be 883d 2ebd 98a2 87bd 6ce9 903d
00000010: 06e6 61be 68dc ca3d d084 a73c 94ca 753e
00000020: 70c9 9d3d 00cd f93a ee14 56be 0052 f9bc
00000030: e052 0b3c 0021 453c 0a15 05be 1479 6dbe
00000040: c430 243e 1c8e f1bd 3433 3b3e fca0 bebd
00000050: 80e5 1bbc de30 1c3e 0803 833d 4a2f 69be
00000060: 0c3c 26be 04bd cd3d 10a7 44bd 401b 8c3b
00000070: 88a4 613d 28a1 8a3d be1b 1ebe a4fb 45be
00000080: d85e 42bd 8812 a03d 8032 0a3e 68d2 08be
00000090: f833 343d e2c2 6ebe 4e8e 5fbe 78f2 9cbd
000000a0: d4a7 523e 8c6f 4fbe 526c 64be 5247 653e
000000b0: 7466 273e 78ff 12be a6a1 253e f08f fbbc
000000c0: f8ab 103d 00f6 f2ba b042 613d 308c 77be
000000d0: 46b5 333e a6f2 653e 8ac7 773e 5048 c43d
000000e0: 3076 173d a6c4 4b3e bc2e a0bd e06d e83c
000000f0: 5099 ef3c e008 293d faf1 22be 1468 503e
00000100: 9618 41be 58da 7b3d da4b 6ebe 1e17 403e
00000110: 3061 a83d 60d9 b6bd 54c0 3f3e 8029 99bc
00000120: 3e3a 38be 0092 3c3e 2c1b 663e 7858 273e
00000130: dc77 59be 4a75 1abe 0eb7 53be 6638 763e
00000140: 00ee 5d3b 58a6 5cbe de95 1fbe 8a17 6abe
00000150: 9019 6fbe e8a7 253e 0e67 283e 6c55 5cbe
00000160: 8eea 73be 7a23 04be a059 083c 4098 743d
00000170: 90ed d83d 1ca2 0cbe 486f 2d3e 80f9 4e3e
00000180: 9802 603e 7627 5d3e d80c 52be de82 68be
00000190: 7440 49be aaab 653e 92f5 033e 0ca6 8c3d
000001a0: 70d5 4dbd e0d2 e33c 68e0 d33d e0c1 163e
000001b0: 6e85 423e 98ee 72bd 1a96 363e 00b6 01be
000001c0: 1c9b 31be e897 62be 183b f5bd b2df 433e
000001d0: 08c5 7e3e f8ff 963d b4df 8f3d f4d8 c4bd
000001e0: 8880 77bd 988f 463d 7042 dbbd 6c9f f9bd
000001f0: ecc8 70be ae0f 433e ba0a 083e 703d bb3c
00000200: 02f5 26be d430 9ebd f85f 38be 5672 53be
00000210: 98ab 2abe 3a6c 3b3e 3232 46be ceff 7c3e
00000220: b4e4 ff3d 18e2 433d 40c1 ae3b 4adf 39be
00000230: 9c7e 85bd d0a8 8ebc f82b 1ebd 744b b1bd
00000240: a0be 30bc b424 5dbe 9ab3 56be d44e 163e
00000250: 4809 21be c053 153e b454 85bd aafa 1f3e
00000260: e205 56be 7ee0 1ebe a4ba 91bd a8d8 57bd
00000270: 50d6 49be 328d 153e 06aa 7f3e b6bd 6e3e
00000280: 78b3 db3d 348c aebd 565c 1abe c0dc 573d
00000290: f001 ef3c 4642 55be e8b7 603d 5e5d 2f3e
000002a0: b8d0 6bbe 58b9 4abe 1e31 6bbe 0882 f9bd
000002b0: 9e98 7fbe e056 0bbd 04b7 f33d 10e5 753d
000002c0: 9c81 eb3d 784e 7bbe 0028 6639 de7f 543e
000002d0: 6c64 1c3e c0be 613e a024 15bd c8d5 cebd
000002e0: 6c09 0f3e 3ca7 9f3d 84ac 0ebe f426 70be
000002f0: fe0e 30be a452 483e 1c95 c6bd 06ab 3bbe
00000300: a289 4dbe aa57 68be 1400 d0bd c60f 22be
00000310: 7872 eabd 08a6 dabd c097 c1bb 5868 eabd
00000320: 08fc ee3d 402f 3bbe b8a6 61bd 4066 123d
00000330: 0275 253e c0cd db3b 8859 11be b847 03be
00000340: 4ab5 3b3e 06e7 1cbe 1664 143e c008 d13b
00000350: 9a01 753e 00ba 073c d481 6cbe f29b 75be
00000360: 689c 83bd 145a d23d 84b9 0bbe 0cd8 04be
00000370: 2eb9 7f3e e848 573d 0419 183e cc8b cf3d
00000380: a0c2 1c3d 7859 08be 20ea bb3c 0edf 4fbe
00000390: 00c0 19ba a04c b1bc ba4e 3d3e f0ee c53c
000003a0: c886 bb3d c0f1 eb3c c031 cbbb f435 4b3e
000003b0: 20d3 963c c4c1 46be 5cd5 a8bd aea4 1e3e
000003c0: 34d7 08be 20b7 67be 707c 95bd bc7d e6bd
000003d0: 68dd 38bd c852 a9bd 005b bf3b 603c eb3c
000003e0: e0cd 22be 2060 1f3e 5001 4dbd 0057 093b
000003f0: cc0c 6abe 06eb 65be e4bf ce3d dc5a f93d

model.0.bias f4 [256]
0.16477236 0.08988104 0.1688806 0.10210209 0.21884738 0.10087069 -0.14032272 0.2538827
-0.22558025 -0.0010693463 0.26563385 0.20626426 0.22110774 0.22074407 -0.048262656 -0.012727231
-0.09113321 -0.16874322 -0.032681465 0.29200333 -0.052004755 -0.014878452 0.11961986 -0.0834707
0.26447836 0.11249071 -0.2148436 0.20498851 0.27806023 -0.04333344 -0.11644578 0.26042965
-0.06470913 -0.10896665 -0.10803318 -0.11919922 0.27972493 -0.18120462 -0.17956507 -0.06349215
0.2489189 -0.07386187 -0.19884178 -0.12896675 -0.1316866 -0.077240825 -0.0075154305 -0.18950564
0.071318574 0.27833548 0.06634291 -0.058885694 -0.03203264 0.24778919 -0.075179696 0.29721218
0.14836891 -0.0675838 -0.047471493 0.15979737 -0.038084 0.13836356 0.22932205 0.29097942
0.27434784 -0.030002326 0.21378478 -0.24999022 0.18627541 0.27395353 0.23266372 0.22915569
0.10053282 -0.23433995 0.12063127 0.28730625 0.11374223 0.11585042 -0.24006844 -0.20379364
-0.05013153 0.2656402 0.17369972 -0.14248341 -0.20432636 -0.2347739 -0.16412452 -0.24276903
-0.15371615 0.23888217 -0.17821386 -0.09525201 -0.097507596 -0.10720509 0.08631331 0.12827773
0.20597644 -0.03537199 0.13554543 0.11111492 0.2660206 0.27554378 0.0703593 0.16323541
0.13445355 -0.15429142 -0.12767896 -0.16491634 0.17440425 0.3034248 -0.21767622 -0.012924731
-0.12859386 -0.16182601 -0.087385505 -0.23646459 -0.032211214 0.104425915 0.1291759 -0.11882296
0.1710418 -0.14280471 0.14988172 0.22227901 0.0892823 0.22205456 0.23109278 0.30443984
0.2084115 -0.13456091 0.17833214 -0.1594623 0.108877674 0.22554237 -0.017626524 0.1996063
0.30696672 -0.11881873 -0.008615673 -0.2155984 0.23079666 -0.010403395 -0.14697024 -0.021783441
0.30190638 -0.1164746 -0.012620717 0.096860304 0.15221065 0.28889874 0.19355473 0.17012045
0.29805574 0.23942788 -0.18129122 0.22078337 0.17710814 -0.10542855 0.193836 -0.102962434
0.12375774 -0.120194346 -0.23585469 0.29526028 0.17556494 0.1176234 0.063915394 0.07702043
-0.078674674 0.15811455 -0.088565975 -0.15117216 0.3048022 0.12686904 -0.24166638 0.11570336
0.16204192 -0.009747893 -0.16624498 -0.19645992 -0.03275159 -0.21100381 -0.14757839 0.24080652
0.074806646 -0.022130936 -0.23806366 0.07753663 0.1509847 -0.00180462 0.18905082 -0.24728173
0.0732807 -0.16726378 0.26579192 -0.11365169 0.09051699 0.10095771 0.22531877 -0.17246974
0.13841106 0.06722251 0.17207927 0.30862904 -0.16257536 0.22562546 0.21950744 -0.14693603
0.16130617 -0.06948674 -0.08933452 0.16201572 0.2788168 0.3030866 0.2834324 -0.17792723
0.19336337 0.13461238 -0.16414133 0.26290455 0.15733215 -0.19116622 -0.082743466 -0.01234588
-0.16234004 -0.0649983 0.20444167 0.13880558 0.19183576 -0.09933308 -0.20025274 0.17889291
0.22262974 -0.11748922 0.24609092 0.17621228 0.20545016 -0.19255352 -0.13591173 0.06698328
0.06823126 -0.19964719 0.25491834 -0.05627069 0.11956955 -0.22080103 0.06295254 -0.0441809
0.30001265 0.07119313 0.2833747 -0.04916829 -0.014118433 -0.14793319 -0.20772249 -0.04335001
00000000: 16ba 283e 8d13 b83d 09ef 2c3e e71a d13d
00000010: 8719 603e 4b95 ce3d c2b0 0fbe eafc 813e
00000020: 82fe 66be 4f29 8cba 2901 883e f036 533e
00000030: 116a 623e bc0a 623e 10af 45bd e085 50bc
00000040: 0ca4 babd 06cb 2cbe 00dd 05bd 7681 953e
00000050: f002 55bd c0c4 73bc 42fb f43d b0f2 aabd
00000060: b569 873e 8861 e63d f6ff 5bbe 82e8 513e
00000070: e95d 8e3e 687e 31bd 207b eebd 0957 853e
00000080: 3886 84bd e829 dfbd 8040 ddbd b81e f4bd
00000090: 1b38 8f3e b48d 39be e8df 37be 2c08 82bd
000000a0: 99e4 7e3e e444 97bd 2e9d 4bbe dc0f 04be
000000b0: dad8 06be 7030 9ebd 0044 f6bb c40d 42be
000000c0: 790f 923d fd81 8e3e cbde 873d 2032 71bd
000000d0: a834 03bd 73bc 7d3e d0f7 99bd 322c 983e
000000e0: 05ee 173e 6069 8abd 7871 42bd eca1 233e
000000f0: f8fd 1bbd 2daf 0d3e 66d3 6a3e 41fb 943e
00000100: 5277 8c3e 70c7 f5bc 66ea 5a3e 70fd 7fbe
00000110: fbbe 3e3e a343 8c3e 663f 6e3e caa7 6a3e
00000120: 27e4 cd3d d0f6 6fbe 870d f73d ce19 933e
00000130: b0f1 e83d fc42 ed3d 80d4 75be 48af 50be
00000140: b856 4dbd fe01 883e 57de 313e 2ce7 11be
00000150: ee3a 51be 9268 70be 4210 28be 7298 78be
00000160: c467 1dbe 879d 743e b27d 36be 7c13 c3bd
00000170: 10b2 c7bd 588e dbbd 08c5 b03d 3d5b 033e
00000180: 7deb 523e 38e2 10bd 6ccc 0a3e 3890 e33d
00000190: da33 883e 1314 8d3e 8918 903d 2f27 273e
000001a0: 31ae 093e 92fe 1dbe 46be 02be d4df 28be
000001b0: 0797 323e 7f5a 9b3e 84e6 5ebe 40c2 53bc
000001c0: 1cae 03be b8b5 25be 2cf7 b2bd c623 72be
000001d0: e8ef 03bd 41dd d53d b046 043e 7459 f3bd
000001e0: 9525 2f3e 663b 12be 987a 193e 1c9d 633e
000001f0: a3d9 b63d 4562 633e 96a3 6c3e 8adf 9b3e
00000200: d369 553e 56ca 09be b39c 363e 164a 23be
00000210: 42fb de3d 94f4 663e 8065 90bc 9865 4c3e
00000220: be2a 9d3e 3c57 f3bd c028 0dbc d4c5 5cbe
00000230: f655 6c3e 0073 2abc 5e7f 16be 3073 b2bc
00000240: 7993 9a3e 3c8a eebd 20c7 4ebc b25e c63d
00000250: 1cdd 1b3e 89ea 933e 3633 463e 0e34 2e3e
00000260: c39a 983e 952c 753e 68a4 39be 0915 623e
00000270: d65b 353e ecea d7bd f27c 463e f8dd d2bd
00000280: b374 fd3d 7428 f6bd e483 71be 5b2c 973e
00000290: 4cc7 333e 8ae4 f03d 13e6 823d e3bc 9d3d
000002a0: 3020 a1bd c8e8 213e 1462 b5bd e0cc 1abe
000002b0: 090f 9c3e f5e9 013e 6477 77be e2f5 ec3d
000002c0: 51ee 253e a0b5 1fbc 203c 2abe ca2c 49be
000002d0: 8826 06bd 6211 58be ca1e 17be fc95 763e
000002e0: 3a34 993d f04b b5bc f6c6 73be 86cb 9e3d
000002f0: bc9b 1a3e 0089 ecba 8a96 413e 6c37 7dbe
00000300: 3114 963d 3247 2bbe e115 883e 38c2 e8bd
00000310: f960 b93d eac2 ce3d f7b9 663e e89b 30be
00000320: a1bb 0d3e f5ab 893d 8c35 303e a004 9e3e
00000330: 287a 26be 5c0a 673e 8fc6 603e 6676 16be
00000340: 722d 253e 104f 8ebd 04f5 b6bd 73e7 253e
00000350: 13c1 8e3e 2b2e 9b3e 0d1e 913e 8e32 36be
00000360: 0c01 463e d4d7 093e aa14 28be 6d9b 863e
00000370: ae1b 213e 14c1 43be 6875 a9bd 6046 4abc
00000380: 783c 26be d41d 85bd 2859 513e 0d23 0e3e
00000390: 9870 443e 246f cbbd 0e0f 4dbe b42f 373e
000003a0: 0df9 633e 309e f0bd 42ff 7b3e fe70 343e
000003b0: 8761 523e c02c 45be 722c 0bbe 882e 893d
000003c0: d5bc 8b3d 5070 4cbe a884 823e 187c 66bd
000003d0: e1e0 f43d aa19 62be 43ed 803d 08f7 34bd
000003e0: 429b 993e b4cd 913d 7d16 913e b064 49bd
000003f0: 0051 67bc cc7b 17be 34b5 54be c88f 31bd

model.2.weight f4 [256, 256]
-0.03288667 0.014376432 -0.0038066655 0.04318144 -0.046596475 0.014442176 0.059930883 -0.050783202
0.0540414 0.058415316 -0.017436408 -0.0504004 -0.059124395 0.051885553 -0.040589675 0.03326823
-0.059118643 0.00025919825 0.007064149 -0.06031739 -0.05963169 0.043211445 -0.011514574 0.022738643
-0.025423475 0.0130670965 0.018014908 0.011307642 -0.002907738 0.0073311925 -0.051780492 -0.035649337
-0.04480794 0.004310973 -0.014050625 -0.024277575 -0.012365498 0.04610303 0.053327665 0.04045532
-0.025244072 -0.022231884 -0.009134345 0.0532071 -0.030754678 0.061979294 -0.049209394 0.054116048
0.017777592 -0.0046049803 -0.033612877 -0.019598238 -0.03936463 -0.007751979 -0.028375678 0.0047299713
0.030241154 0.018323578 -0.046299875 -0.044300266 0.04348255 0.030019738 0.054328807 0.020216346
0.0323497 0.034708902 -0.0038137883 -0.01601889 -0.03298579 0.049137644 0.020859696 -0.021887533
0.009190053 -0.034464836 0.014818132 -0.023095034 -0.044342473 -0.041058756 -0.016444415 -0.011628509
0.015827142 0.023031995 -0.0576721 0.009484783 -0.0622191 0.017700441 0.03913945 -0.03627275
0.053545855 -0.019273728 -0.05594842 -0.028206602 -0.018018901 0.037173063 -0.05071047 -0.03895016
0.015702069 -0.013965279 0.015447393 -0.046294697 0.009091549 -0.027238198 0.048551276 -0.06129609
-0.023977593 0.037220478 -0.054113798 0.0086444765 0.040393777 0.03681943 -0.046907283 0.045595407
0.0034823418 -0.00777556 0.025740467 0.023048632 -0.013309628 -0.017394029 0.026604302 -0.039630152
0.019553803 -0.051942877 0.04368198 0.030850999 -0.05118829 0.033659287 0.0012259111 -0.024127029
-0.03172139 0.014362715 -0.061882816 0.041261733 -0.017852984 -0.057088763 0.034491777 -0.020507708
-0.04999163 -0.045284294 0.034225926 0.015668504 0.023245752 -0.023169838 -0.05663953 0.061535098
0.003738135 -0.034800187 0.042558916 0.045539886 -0.020270832 -0.026242547 0.029986538 -0.02101411
-0.024237275 0.03746248 0.00719098 -0.03864654 0.02766639 -0.040971942 -9.560585e-05 -0.061806068
-0.031791367 -0.0450157 0.0065417737 0.059508294 -0.037984215 -0.03230103 0.036114484 -0.019852266
0.023801915 0.032877 -0.0012834072 0.024977706 0.0423339 -0.021970794 -0.017826714 -0.060625672
-0.020613432 0.051559597 -0.007993221 0.052583113 0.028084248 -0.05660271 0.008506998 -0.027502105
0.04152433 -0.03651847 0.015802063 0.020265564 -0.002884686 0.040717408 0.01560837 0.019374356
-0.048172846 -0.041881636 0.02650173 0.014191918 -0.0361498 0.04509704 -0.0366114 0.01969178
0.05019483 0.053850673 0.037509322 -0.052787594 0.028466366 -0.030767955 -0.046432957 0.02517119
-0.029825293 0.0087760985 -0.0041286424 -0.052209377 -0.04425516 -0.036963485 -0.051539242 0.029101104
-0.01881542 -0.021169208 0.02183564 -0.04831227 0.01192227 -0.028828368 -0.023418851 0.009784587
-0.03270548 -0.017372496 0.01971037 0.047760293 -0.0025152117 0.013965003 -0.011946514 0.05800928
0.04335472 0.03642589 -0.003137201 0.009921603 0.05021842 0.04183185 -0.04879514 0.017378747
-0.028298944 0.037221514 -0.062134154 -0.057427965 -0.051697224 0.03164751 0.024378955 0.019521736
-0.053960256 -0.059260882 0.0013531446 -0.031220742 -0.025269903 0.055121228 -0.057583436 0.026747234
00000000: 2cb4 06bd 208b 6b3c 4079 79bb 06df 303d
00000010: f2db 3ebd e09e 6c3c 167a 753d 0c02 50bd
00000020: 845a 5d3d e644 6f3d ccd6 8ebc a670 4ebd
00000030: 6c2c 72bd f285 543d 5c41 26bd 4444 083d
00000040: 6426 72bd 00e5 8739 607a e73b 5e0f 77bd
00000050: 5c40 74bd 7cfe 303d a0a7 3cbc 6446 ba3c
00000060: e444 d0bc 6017 563c 0094 933c b043 393c
00000070: c08f 3ebb 803a f03b c817 54bd 0a05 12bd
00000080: 8888 37bd 1043 8d3b 9834 66bc c4e1 c6bc
00000090: a898 4abc 88d6 3c3d 1c6e 5a3d 7ab4 253d
000000a0: a8cc cebc a41f b6bc 38a8 15bc b0ef 593d
000000b0: 3cf1 fbbc 00de 7d3d ca8f 49bd caa8 5d3d
000000c0: 50a2 913c 60e5 96bb a8ad 09bd 7c8c a0bc
000000d0: ce3c 21bd 5004 febb 1c74 e8bc e0fd 9a3b
000000e0: 4cbc f73c 541b 963c f0a4 3dbd 3274 35bd
000000f0: c21a 323d f4eb f53c e287 5e3d c09c a53c
00000100: 1e81 043d ec2a 0e3d c0f0 79bb 0c3a 83bc
00000110: 1c1c 07bd 8e44 493d f4e1 aa3c 7c4d b3bc
00000120: e091 163c 002b 0dbd c0c7 723c cc31 bdbc
00000130: 74a0 35bd 3a2d 28bd 70b6 86bc 8085 3ebc
00000140: eca7 813c 98ad bc3c 9439 6cbd 1066 1b3c
00000150: 74d9 7ebd 8400 913c b050 203d bc92 14bd
00000160: e652 5b3d f0e3 9dbc 2c2a 65bd 8811 e7bc
00000170: 609c 93bc c842 183d c8b5 4fbd 348a 1fbd
00000180: a0a1 803c a0ce 64bc 1017 7d3c 829f 3dbd
00000190: b8f4 143c a422 dfbc b4dd 463d 9c11 7bbd
000001a0: a86c c4bc 8074 183d 6ea6 5dbd 90a1 0d3c
000001b0: f273 253d f8cf 163d da21 40bd 40c2 3a3d
000001c0: 0038 643b 20ca febb acdd d23c 7cd0 bc3c
000001d0: a010 5abc ec7d 8ebc 44f1 d93c 3a53 22bd
000001e0: 4c2f a03c 0ec2 54bd e0eb 323d 3cbb fc3c
000001f0: d0aa 51bd 52de 093d c0ae a03a 0ca6 c5bc
00000200: 4aee 01bd 9851 6b3c d678 7dbd 1002 293d
00000210: 6c40 92bc e8d5 69bd 4047 0d3d c8ff a7bc
00000220: 06c4 4cbd 067c 39bd 7c30 0c3d 3c5b 803c
00000230: e06d be3c acce bdbc dafe 67bd 3a0c 7c3d
00000240: 80fb 743b a48a 0ebd 4252 2e3d 0888 3a3d
00000250: 040f a6bc 9cfa d6bc 54a6 f53c c825 acbc
00000260: 408d c6bc 4272 193d 50a2 eb3b d64b 1ebd
00000270: a0a4 e23c 32d2 27bd 0080 c8b8 5c28 7dbd
00000280: aa37 02bd 6262 38bd 605c d63b f8be 733d
00000290: 5695 1bbd 164e 04bd c8ec 133d 38a1 a2bc
000002a0: 3cfc c23c 08aa 063d 0038 a8ba 0c9e cc3c
000002b0: 5066 2d3d 18fc b3bc 5409 92bc a052 78bd
000002c0: 80dd a8bc 2830 533d 00f6 02bc 6461 573d
000002d0: f010 e63c 3ed8 67bd f060 0b3c 184c e1bc
000002e0: 6a15 2a3d 6494 15bd 5473 813c f803 a63c
000002f0: 000d 3dbb 4cc7 263d 40ba 7f3c f8b6 9e3c
00000300: e450 45bd 148c 2bbd 281a d93c 3885 683c
00000310: d011 14bd acb7 383d d6f5 15bd a850 a13c
00000320: 1899 4d3d 8692 5c3d 60a3 193d ce37 58bd
00000330: 4c32 e93c 140d fcbc 7c30 3ebd d033 ce3c
00000340: 2c54 f4bc a0c9 0f3c 9049 87bb 80d9 55bd
00000350: e644 35bd 0667 17bd d01a 53bd 7065 ee3c
00000360: cc22 9abc 0c6b adbc a8e0 b23c 16e3 45bd
00000370: a055 433c 7829 ecbc e4d8 bfbc 884f 203c
00000380: 2ef6 05bd c450 8ebc a477 a13c 4ca0 433d
00000390: 40d6 24bb 78cd 643c 50bb 43bc 249b 6d3d
000003a0: b894 313d 5033 153d 8099 4dbb 388e 223c
000003b0: d4b1 4d3d e057 2b3d 6add 47bd e05d 8e3c
000003c0: 30d3 e7bc 9675 183d 6280 7ebd 9639 6bbd
000003d0: 78c0 53bd d2a0 013d 60b6 c73c 0cec 9f3c
000003e0: 6e05 5dbd 8abb 72bd 005c b13a a4c2 ffbc
000003f0: d402 cfbc ccc6 613d 9cdc 6bbd 041d db3c

model.2.bias f4 [256]
-0.0043103322 0.04561816 -0.040717646 0.04698507 0.030254576 -0.019800054 -0.010949135 0.105992295
-0.023784801 0.035792142 0.107034445 0.06715948 0.08149363 0.09890268 -0.05552309 0.002486512
0.07015512 0.019747777 -0.030456329 -0.015970334 0.10691261 0.0009031072 -0.0034566075 0.030826757
-0.00057943165 0.0850409 0.003606096 0.031027399 -0.046640836 -0.0019071177 -0.04065261 -0.0070530176
0.09946818 0.013561949 -0.061711654 0.06012324 0.021870553 -0.014040053 0.064136885 -0.055064544
-0.059745498 0.093845434 -0.041484844 -0.012973219 0.087472826 -0.05432827 0.08341505 0.071861885
0.041278746 -0.02381774 0.0495023 -0.047874145 0.012843579 0.0040847138 0.032696202 -0.0013515635
-0.025059216 0.05199597 0.028362498 0.03557965 -0.011498548 -0.033375353 0.08949118 -0.010513527
0.038295522 0.10400996 0.10418314 0.054279603 0.07415666 -0.057788514 0.0692682 0.10463066
-0.046021394 -0.020865962 -0.0360438 -0.0012789145 0.0777259 -0.033199057 -0.043257363 -0.03527396
0.10035378 -0.0272078 0.054178692 -0.043700628 0.083302334 0.018485177 -0.045788452 0.07086393
-0.022190303 -0.01183179 0.043160453 0.05273589 -0.047986053 -0.02209381 0.0593845 0.015608303
0.101455666 0.015911682 0.046470616 -0.05316508 0.009163462 -0.060697213 0.104905054 0.09227977
-0.05934505 0.012866534 -0.041059487 -0.0187101 0.08804121 -0.027092546 0.026412627 0.0076240227
0.0014668107 0.043055587 0.05547121 -0.044915184 0.013571925 0.10810655 0.058784567 -0.03214007
-0.009579952 0.026264377 -0.023640264 0.0065566897 0.03880228 0.08217046 0.006359488 0.010525316
-0.008066338 0.01949077 0.020558536 0.05721085 0.062246628 0.04551563 0.06535539 -0.015813157
0.038009427 0.10784347 0.03981705 -0.02053687 0.010606965 0.015700089 0.0046706796 0.09498248
0.024106428 0.034345787 -0.008153364 0.0073391497 -0.02998429 0.08849048 -0.02735547 -0.021612398
0.11301943 -0.008211247 -0.029151022 0.10156307 0.03809976 0.10839109 0.06036055 0.03599702
-0.044664927 0.041062348 -0.056943156 0.0070168898 -0.03261366 0.02582305 0.014782175 0.027902093
-0.04009656 0.044660073 -0.019350655 0.07003688 0.02942358 -0.03370011 0.08381639 -0.015048832
-0.01991333 0.10653055 0.0658114 0.072016194 -0.048840918 0.05549508 -0.05327566 0.054312743
-0.037140325 -0.017434023 0.052676342 0.050877504 0.023710683 -0.029519178 -0.010332696 0.018925786
-0.012730353 0.11143278 0.017974004 -0.048937283 -0.020187296 -0.061658233 0.066934936 0.032190032
0.012485043 -0.007267639 0.061065547 0.109453365 0.009685621 0.003185667 -0.019847475 0.07769634
0.046306744 0.017935593 0.05759278 0.106580704 -0.055368915 -0.034738645 0.0792081 0.007846206
0.01077529 0.072418325 0.09388049 -0.055164836 0.091990784 -0.04426746 0.050710075 -0.05971954
0.0819335 -0.008230731 0.011738228 0.024170477 0.02706148 -0.054715082 0.010262765 0.06253045
-0.028431676 -0.058995586 -0.023017243 -0.035562128 0.08908051 -0.0056311497 0.049530663 0.094977126
0.064059615 0.03291534 -0.010010302 0.04395198 -0.061386228 0.090544574 0.090051055 -0.044039708
0.05921722 0.07769174 -0.018143333 0.010959521 -0.009403594 0.023255512 -0.049152896 0.08808305
00000000: b03d 8dbb 1cda 3a3d 8cc7 26bd 6b73 403d
00000010: 72d8 f73c b933 a2bc 0064 33bc 7d12 d93d
00000020: 58d8 c2bc c89a 123d e034 db3d e98a 893d
00000030: 22e6 a63d 7d8d ca3d 2e6c 63bd c0f4 223b
00000040: 7dad 8f3d 17c6 a13c 8d7f f9bc 38d4 82bc
00000050: 00f5 da3d 80be 6c3a 4088 62bb 6588 fc3c
00000060: 00e5 17ba ec29 ae3d 4054 6c3b 2c2d fe3c
00000070: 760a 3fbd 40f8 f9ba 5a83 26bd 001d e7bb
00000080: f9b5 cb3d f032 5e3c 5cc5 7cbd c943 763d
00000090: e029 b33c 4008 66bc 335a 833d 5c8b 61bd
000000a0: b2b7 74bd 0932 c03d 03ec 29bd a08d 54bc
000000b0: f424 b33d 5287 5ebd 82d5 aa3d 532c 933d
000000c0: e713 293d 6c1d c3bc ecc2 4a3d ae17 44bd
000000d0: e06d 523c 10d9 853b 74ec 053d f226 b1ba
000000e0: fc48 cdbc baf9 543d 7858 e83c f8bb 113d
000000f0: 6864 3cbc 98b4 08bd 2747 b73d ee40 2cbc
00000100: c4db 1c3d 2d03 d53d f85d d53d 4a54 5e3d
00000110: 72df 973d a6b3 6cbd 7cdc 8d3d 9948 d63d
00000120: ee80 3cbd 18ef aabc aaa2 13bd 40a1 a7ba
00000130: c22e 9f3d bcfb 07bd a22e 31bd 6e7b 10bd
00000140: 4886 cd3d e4e2 debc 7aea 5d3d 6eff 32bd
00000150: 6a9a aa3d 3a6e 973c ac8c 3bbd 1c21 913d
00000160: 70c8 b5bc 20da 41bc 04c9 303d 9701 583d
00000170: 068d 44bd 14fe b4bc 293d 733d f8b9 7f3c
00000180: fdc7 cf3d 3759 823c f957 3e3d a0c3 59bd
00000190: 5822 163c a49d 78bd 76d8 d63d 2dfd bc3d
000001a0: cc13 73bd 28ce 523c fe2d 28bd ec45 99bc
000001b0: f34e b43d 30f1 ddbc 4b5f d83c f0d2 f93b
000001c0: 0042 c03a 0e5b 303d c835 633d fcf8 37bd
000001d0: c85c 5e3c f866 dd3d 16c8 703d 4ea5 03bd
000001e0: 3bf5 1cbc 6428 d73c 3aa9 c1bc 80d9 d63b
000001f0: 24ef 1e3d fc48 a83d 4063 d03b 6072 2c3c
00000200: ac28 04bc 1bab 9f3c 606a a83c ed55 6a3d
00000210: 52f6 7e3d 996e 3a3d 0cd9 853d 988a 81bc
00000220: c6af 1b3d 0add dc3d 3417 233d f03c a8bc
00000230: d6c8 2d3c 799d 803c 800c 993b 2d86 c23d
00000240: d87a c53c 2bae 0c3d b095 05bc 407d f03b
00000250: 9da1 f5bc 7f3a b53d 9418 e0bc 7c0c b1bc
00000260: bb76 e73d 7788 06bc 20ce eebc 4d00 d03d
00000270: 7e0e 1c3d 26fc dd3d a03c 773d 9c71 133d
00000280: 92f2 36bd fe30 283d 3a3d 69bd f0ed e53b
00000290: e795 05bd dc8a d33c f030 723c ee92 e43c
000002a0: 4a3c 24bd 7bed 363d 4485 9ebc 7f6f 8f3d
000002b0: b809 f13c 2009 0abd eda7 ab3d 608f 76bc
000002c0: 4821 a3bc b02c da3d 21c8 863d 3a7d 933d
000002d0: 6a0d 48bd cf4e 633d 9437 5abd 0a77 5e3d
000002e0: 7420 18bd ccd1 8ebc 26c3 573d ee64 503d
000002f0: e83c c23c 34d2 f1bc 784a 29bc 400a 9b3c
00000300: f892 50bc df36 e43d 383e 933c 7672 48bd
00000310: d45f a5bc 588d 7cbd 2f15 893d b2d9 033d
00000320: 118e 4c3c 6025 eebb de1f 7a3d 1629 e03d
00000330: 70b0 1e3c a0c6 503b 2c97 a2bc 421f 9f3d
00000340: 24ac 3d3d aaed 923c 68e6 6b3d fc46 da3d
00000350: 84ca 62bd 1c4a 0ebd db37 a23d 608d 003c
00000360: d88a 303c 0f50 943d 6a44 c03d 86f4 61bd
00000370: aa65 bc3d cc51 35bd 5eb5 4f3d 7a9c 74bd
00000380: c0cc a73d 30da 06bc b251 403c 2a01 c63c
00000390: 09b0 dd3c ec1c 60bd 2825 283c f70f 803d
000003a0: 8ce9 e8bc 5ba5 71bd a88e bcbc 98a9 11bd
000003b0: d86f b63d 8285 b8bb aae0 4a3d 5e83 c23d
000003c0: b031 833d 3cd2 063d 4002 24bc fe06 343d
000003d0: 2070 7bbd 6f6f b93d b06c b83d fb62 34bd
000003e0: c18d 723d d91c 9f3d 54a1 94bc 908f 333c
000003f0: 8811 1abc 5882 be3c 8c54 49bd e364 b43d

model.4.weight f4 [256, 256]
-0.03394808 0.01742356 0.038344514 0.061357975 -0.009068824 -0.005306028 0.040451586 0.04780448
0.058090627 -0.060345024 -0.010945626 -0.005394663 0.05584943 0.0481218 -0.0569612 -0.026721172
0.05000773 0.07382125 0.014361217 -0.0152935535 0.051072545 0.059742376 0.023454584 0.03149186
-0.036812633 0.00573048 0.007496074 -0.046870425 0.025228612 0.01816132 -0.050764978 0.02498433
0.041472968 0.034751818 -0.032857776 0.045269884 -0.010697931 -0.049624145 0.067360744 -0.029091604
0.018447407 -0.0076162317 -0.011136671 -0.034401596 0.037643723 -0.04431343 0.02116225 0.064694695
0.050909523 -0.05936064 -0.013280973 0.043122977 -0.016726762 -0.0081730485 0.06910963 0.033836015
-0.04469405 -0.05801773 -0.036607698 0.026914991 -0.047683105 0.00757131 0.001252822 -0.006397525
-0.04453242 0.08511239 0.06975052 0.10786311 0.052004483 0.0013594031 0.06828296 0.0144402
0.0096955 -0.037034325 0.003408961 0.033609234 0.019881075 0.01089073 -0.006807901 -0.03660936
0.08333737 -0.056247905 0.010005114 -0.023948722 0.0896773 0.036504738 0.04247363 0.025468789
-0.05379323 -0.061308227 -0.008619271 0.07225717 0.05964628 0.05385218 0.04780316 0.059061505
0.06033614 0.06544213 -0.0047749355 0.047424622 0.008132473 -0.03141696 0.07927114 0.06680902
0.027225085 0.057714373 0.0012107715 -0.058730222 0.028758084 0.05324687 0.09234744 0.027615182
-0.0010791719 0.031742603 0.07660136 -0.0026747808 -0.032108054 0.086215064 0.06569195 0.027824588
-0.041577905 0.07946594 -0.060134947 -0.03973818 -0.025614068 0.017127907 -0.030498415 -0.02884014
0.018911548 0.016047051 0.0355711 0.09359305 0.03182842 0.071816355 0.035566535 0.0026719794
0.03281735 0.06877393 0.07219545 0.031044781 -0.012042128 0.022178672 0.041415177 0.0053942367
0.046229653 0.05360398 -0.03538812 0.037444487 -0.047369786 0.050889477 -0.035326026 -0.030750163
0.022043064 0.1012651 0.04330845 -0.0023253039 0.050893314 0.08292382 -0.012912795 -0.05087696
-0.052387886 0.015102901 -0.0036467835 -0.010976806 -0.06113129 -0.057455458 -0.03098958 0.009460645
-0.00070092827 -0.049466863 -0.03559707 0.10242476 0.03558962 0.01734431 0.03288995 -0.03668815
0.060294993 0.0834043 0.057707172 0.09826459 0.055577114 0.02836939 0.011084788 -0.0151008265
-0.00041654706 -0.037367404 -0.008425558 -0.010408878 -0.040309764 0.05909247 0.052841075 0.034403995
-0.06102 0.025511224 0.04995913 0.04513123 -0.059237607 -0.020023465 0.062835015 0.043536685
0.089630954 0.019387327 0.00026847082 0.050306186 -0.018750057 -0.052442208 -0.046227686 0.026395425
0.03721699 0.07542038 -0.030460939 0.049188744 0.046443544 0.004368961 0.066869475 -0.04416263
0.09563621 0.039840225 -0.01506597 0.036625087 0.06533282 0.06237209 -0.035282195 -0.035448328
-0.008936925 -0.02315075 0.028113425 -0.056643456 -0.020693704 -0.0006831214 -0.019389711 0.08871755
-0.05147087 0.02506295 -0.008445814 -0.01483316 0.06276568 0.053843617 0.02956815 -0.0076496643
0.07508339 0.08075739 -0.02588553 0.04232627 -0.006050893 0.008870445 0.07370877 -0.061698906
0.0073406454 0.105300345 -0.008947529 0.024881184 0.009269983 0.040483035 0.056217447 0.06626134
00000000: 240d 0bbd dbbb 8e3c 230f 1d3d 8052 7b3d
00000010: 6895 14bc 30de adbb 90b0 253d a1ce 433d
00000020: 70f0 6d3d 582c 77bd 4855 33bc b7c5 b0bb
00000030: 5fc2 643d 5d1b 453d 2650 69bd 5ce6 dabc
00000040: e8d4 4c3d 982f 973d 4f4b 6b3c d091 7abc
00000050: 7231 513d 6cb4 743d d423 c03c 9cfd 003d
00000060: d8c8 16bd c0c6 bb3b a0a1 f53b 34fb 3fbd
00000070: 3cac ce3c 0cc7 943c f0ee 4fbd f0ab cc3c
00000080: 8fdf 293d ec57 0e3d e095 06bd ea6c 393d
00000090: 6046 2fbc b042 4bbd 6ef4 893d 8451 eebc
000000a0: 041f 973c 9591 f9bb 9576 36bc b0e8 0cbd
000000b0: 4e30 1a3d 0082 35bd 745c ad3c a77e 843d
000000c0: 8186 503d 2424 73bd 7098 59bc b8a1 303d
000000d0: 9006 89bc 40e8 05bc 5a89 8d3d a297 0a3d
000000e0: 1c11 37bd 00a4 6dbd f4f1 15bd d47c dc3c
000000f0: 5c4f 43bd c018 f83b bb35 a43a 54a2 d1bb
00000100: a067 36bd 684f ae3d 5cd9 8e3d 56e7 dc3d
00000110: a702 553d 002e b23a f0d7 8b3d 9796 6c3c
00000120: e0d9 1e3c 4eb1 17bd e068 5f3b d6a9 093d
00000130: a3dd a23c 086f 323c d014 dfbb b2f3 15bd
00000140: c8ac aa3d 3464 66bd 7dec 233c 1c30 c4bc
00000150: bba8 b73d fe85 153d d4f8 2d3d eca3 d03c
00000160: 4a56 5cbd 561e 7bbd d837 0dbc 91fb 933d
00000170: a84f 743d 1a94 5c3d 3fcd 433d 7aea 713d
00000180: 0723 773d 8606 863d 1077 9cbb 5240 423d
00000190: 103e 053c 12af 00bd e858 a23d 2bd3 883d
000001a0: 2407 df3c e865 6c3d c0b2 9e3a 1a8f 70bd
000001b0: 1396 eb3c 6419 5a3d a820 bd3d 3c39 e23c
000001c0: 0073 8dba 8804 023d 2de1 9c3d 604b 2fbb
000001d0: bc83 03bd 8691 b03d 8089 863d 64f0 e33c
000001e0: 984d 2abd 0abf a23d 1050 76bd 80c4 22bd
000001f0: 98d4 d1bc d34f 8c3c d0d7 f9bc 2842 ecbc
00000200: 64ec 9a3c 1b75 833c 00b3 113d b7ad bf3d
00000210: 845e 023d 7414 933d 37ae 113d 601c 2f3b
00000220: 7c6b 063d 59d9 8c3d 35db 933d a051 fe3c
00000230: 584c 45bc 0cb0 b53c f6a2 293d 23c2 b03b
00000240: 4e5b 3d3d d98f 5b3d 22f3 10bd 645f 193d
00000250: d206 42bd 7c71 503d 06b2 10bd c4e7 fbbc
00000260: a893 b43c 1464 cf3d 3464 313d 2064 18bb
00000270: 8275 503d f7d3 a93d 3090 53bc 5c64 50bd
00000280: ae94 56bd 2872 773c e0fe 6ebb 10d8 33bc
00000290: ce64 7abd 6a56 6bbd dcdd fdbc d200 1b3c
000002a0: 80be 37ba c49d 4abd 3cce 11bd 13c4 d13d
000002b0: 6cc6 113d a815 8e3c 9db7 063d 5046 16bd
000002c0: e2f7 763d e0cf aa3d 5b5e 6c3d f23e c93d
000002d0: d4a4 633d ec66 e83c f89c 353c 7569 77bc
000002e0: 0064 dab9 900e 19bd 5a0b 0abc 008a 2abc
000002f0: da1b 25bd f20a 723d e26f 583d 34eb 0c3d
00000300: 1cf0 79bd eafc d03c f2a1 4c3d 86db 383d
00000310: 22a3 72bd 4008 a4bc a5af 803d 8653 323d
00000320: 6f90 b73d 2cd2 9e3c 8bc1 8c39 dc0d 4e3d
00000330: b899 99bc a4cd 56bd 3e59 3dbd 383b d83c
00000340: d870 183d 0076 9a3d 3889 f9bc 237a 493d
00000350: 963b 3e3d 8029 8f3b ddf2 883d e0e3 34bd
00000360: ebdc c33d 812f 233d 42d7 76bc 3004 163d
00000370: 37cd 853d e079 7f3d 1084 10bd 4432 11bd
00000380: 2e6c 12bc a4a6 bdbc 204e e63c f802 68bd
00000390: d885 a9bc 8013 33ba 2cd7 9ebc 8cb1 b53d
000003a0: 1ed3 52bd d150 cd3c 5060 0abc c806 73bc
000003b0: 4b8b 803d 208b 5c3d e838 f23c 09aa fabb
000003c0: 52c5 993d 2164 a53d e40d d4bc 505e 2d3d
000003d0: 9246 c6bb 5855 113c a0f4 963d feb7 7cbd
000003e0: cc89 f03b b5a7 d73d a898 12bc a0d3 cb3c
000003f0: 20e1 173c 8ad1 253d 4444 663d 07b4 873d

model.4.bias f4 [256]
0.005676459 0.016751388 -0.021911843 0.08873536 0.09790297 -0.04493568 -0.043363318 0.03390787
0.010449752 -0.033116743 0.0003638491 -0.05507947 0.016064983 0.068155326 0.051593978 0.06515641
0.04509351 -0.022439327 0.090217635 -0.007646515 -0.036120698 0.058865033 0.06899174 0.090703785
-0.058910146 0.08480702 0.042544153 0.08982642 -0.06048949 -0.043711856 -0.042822994 -0.019629827
-0.058401905 0.055111136 0.08608747 -0.00055754185 0.085004106 0.06953885 -0.012727365 0.039025355
0.024910703 0.035565205 0.032784224 0.035996344 -0.0063072294 0.0019153915 0.007366248 -0.046966705
0.09961896 -0.05090291 -0.037103213 0.024596194 0.058418386 -0.059582397 0.057612196 -0.018232808
-0.052755326 0.03672842 0.09212965 0.08540565 0.024298154 0.011747335 0.057382993 -0.019270971
0.04638157 0.05074009 0.09634278 0.033327516 0.008610569 -0.03795442 -0.0016752256 0.093639
0.05812208 -0.012101197 0.0357544 0.08476733 0.08678466 0.010447373 -0.031633236 -0.0063311905
-0.03501902 0.015690425 0.08333708 0.044590686 0.028843112 -0.017873198 -0.039970934 0.04102478
-0.028132237 0.06282762 -0.013846297 -0.03373767 0.050955128 -0.041233003 -0.0024679527 0.04250858
0.06309086 0.05633863 -0.01753177 0.09938514 0.016939042 0.03941332 0.010920615 -0.027045606
0.09461954 -0.041411422 0.09870376 0.021446113 0.05843823 0.006775461 -0.009748615 0.072336145
-0.045408957 0.020471342 0.0002797693 0.09222696 -0.052314796 0.03268906 0.07010477 0.03715275
0.09071925 0.015664265 -0.030499086 -0.009602984 0.059038095 -0.041560583 -0.04211607 0.0358897
-0.024499618 -0.031869605 -0.0036077946 0.003986314 0.06861274 -0.0026269704 -0.009185575 -0.051464617
0.033519376 0.0153055275 -0.047627263 -0.013265789 -0.00010310345 -0.033394337 -0.018716197 0.100466974
-0.0072247535 -0.041780956 -0.010930515 -0.031160891 0.01927627 0.028839521 -0.047664084 -0.019191692
-0.01699964 0.015327565 0.0074929893 -0.009398984 -0.027644016 0.03816539 -0.019668967 -0.032805175
0.094230056 0.0908472 -0.034832694 0.07836454 0.06347329 0.049643595 0.05885207 0.044453513
-0.0117899105 0.03778235 0.095789194 -0.03314124 0.000389817 -0.02502442 0.0070039444 0.07524105
0.09190795 0.039372396 -0.02054704 -0.027961776 -0.04474666 -0.03603061 0.1041264 0.022580631
0.04067684 0.079090714 -0.03312868 0.09214875 0.073327914 -0.011075962 0.09952453 0.0063074008
-0.02243217 0.009168713 0.10598424 -0.0230428 0.0581586 -0.00096291915 -0.047565095 0.076005526
-0.05464931 -0.054266505 0.025058173 0.044927705 0.056336127 -0.037550632 0.068775766 -0.04240316
-0.04688134 0.101918094 -0.056569207 -0.005404835 0.07695701 0.0020749492 0.024019782 -0.011913491
-0.033965357 -0.021678403 -0.016750872 -0.062392965 0.019637508 0.07724019 0.05676787 -0.04226239
-0.024990581 -0.060552828 0.0316255 0.04289709 -0.042117365 0.05366252 0.04641284 0.08379025
0.028451692 0.06345426 0.07820372 0.10633073 0.033496372 -0.044650823 -0.015235081 0.09316057
0.055458955 0.07468265 0.09640937 0.018547254 -0.03932647 -0.052649476 -0.058738157 -0.032280922
0.06922162 0.08655469 0.08015229 0.05664276 -0.025285907 -0.03249849 0.035355233 0.105075516
00000000: 9701 ba3b 353a 893c 7780 b3bc e2ba b53d
00000010: 5a81 c83d 7a0e 38bd bc9d 31bd fbe2 0a3d
00000020: 7035 2b3c 6ca5 07bd 00c3 be39 039b 61bd
00000030: b69a 833c 0595 8b3d 3554 533d b970 853d
00000040: f9b3 383d aed2 b7bc 06c4 b83d 9e8f fabb
00000050: 4cf3 13bd 761c 713d 8b4b 8d3d e8c2 b93d
00000060: c44b 71bd 4eaf ad3d c742 2e3d eaf6 b73d
00000070: d4c3 77bd 340b 33bd 2a67 2fbd bbce a0bc
00000080: d636 6fbd 37bc 613d a14e b03d 0028 12ba
00000090: a216 ae3d 626a 8e3d 7086 50bc 0dd9 1f3d
000000a0: 8811 cc3c d2ac 113d c048 063d e770 133d
000000b0: e0ac cebb e00d fb3a 9160 f13b 2960 40bd
000000c0: 0605 cc3d 927f 50bd 8af9 17bd f57d c93c
000000d0: 1e48 6f3d ac0c 74bd c4fa 6b3d f85c 95bc
000000e0: f815 58bd 8a70 163d 78ae bc3d 28e9 ae3d
000000f0: ec0c c73c e577 403c 6e0a 6b3d 28de 9dbc
00000100: 9afa 3d3d d7d4 4f3d 5d4f c53d 6f82 083d
00000110: 5813 0d3c 1876 1bbd 3e93 dbba cec5 bf3d
00000120: 6b11 6e3d 1944 46bc 3573 123d 7e9a ad3d
00000130: 28bc b13d 752b 2b3c da91 01bd e075 cfbb
00000140: 1b70 0fbd 3589 803c a2ac aa3d b9a4 363d
00000150: 6448 ec3c d06a 92bc 90b8 23bd 9a09 283d
00000160: 9475 e6bc c4ab 803d 94db 62bc 8330 0abd
00000170: 53b6 503d f0e3 28bd 60bd 21bb 7a1d 2e3d
00000180: c835 813d 56c3 663d c99e 8fbc 708a cb3d
00000190: bfc3 8a3c dd6f 213d 61ec 323c bf8e ddbc
000001a0: e4c7 c13d 069f 29bd 3225 ca3d c2af af3c
000001b0: ed5c 6f3d b004 de3b a8b8 1fbc f924 943d
000001c0: befe 39bd 84b3 a73c 00ae 9239 7de1 bc3d
000001d0: 0a48 56bd f7e4 053d 1793 8f3d 7b2d 183d
000001e0: 04cb b93d 5852 803c 38d9 f9bc d655 1dbc
000001f0: eed1 713d 6e3b 2abd e681 2cbd 1401 133d
00000200: 6cb3 c8bc b489 02bd c070 6cbb a09f 823b
00000210: d684 8c3d 4029 2cbb 187f 16bc 90cc 52bd
00000220: 9d4b 093d 09c4 7a3c ce14 43bd c058 59bc
00000230: 3e39 d8b8 80c8 08bd b652 99bc a1c1 cd3d
00000240: a0bd ecbb 8222 2bbd e715 33bc 2045 ffbc
00000250: 45e9 9d3c dc40 ec3c 6a3b 43bd e537 9dbc
00000260: d442 8bbc 7820 7b3c c087 f53b 32fe 19bc
00000270: b475 e2bc 5053 1c3d d020 a1bc b85e 06bd
00000280: b0fb c03d 190e ba3d baac 0ebd 977d a03d
00000290: 49fe 813d 1557 4b3d de0e 713d e314 363d
000002a0: 782a 41bc aac1 1a3d 202d c43d 1cbf 07bd
000002b0: 5a60 cc39 0300 cdbc 5881 e53b fb17 9a3d
000002c0: 3c3a bc3d f344 213d 4452 a8bc 1810 e5bc
000002d0: 4648 37bd d594 13bd 3940 d53d 04fb b83c
000002e0: c29c 263d 50fa a13d f0b1 07bd 7cb8 bc3d
000002f0: f22c 963d f477 35bc 84d3 cb3d 50ae ce3b
00000300: acc3 b7bc 5f38 163c 440e d93d 41c4 bcbc
00000310: b637 6e3d 696c 7cba 9ed3 42bd c9a8 9b3d
00000320: f4d7 5fbd 8e46 5ebd cc46 cd3c 1d06 383d
00000330: b6c0 663d b1ce 19bd 4fda 8c3d f0ae 2dbd
00000340: a606 40bd 6fba d03d 1db5 67bd 0b1b b1bb
00000350: a39b 9d3d dffb 073b 22c5 c43c ce30 43bc
00000360: 421f 0bbd e896 b1bc 2039 89bc c48f 7fbd
00000370: d7de a03c 1b30 9e3d 6d85 683d 541b 2dbd
00000380: 0cb9 ccbc 3e06 78bd be89 013d dcb4 2f3d
00000390: 4283 2cbd 3bcd 5b3d 641b 3e3d 399a ab3d
000003a0: 8613 e93c 4ff4 813d 4629 a03d edc3 d93d
000003b0: 7e33 093d c8e3 36bd 909c 79bc f8ca be3d
000003c0: ee28 633d 38f3 983d 4772 c53d 69f0 973c
000003d0: cb14 21bd faa6 57bd 6c97 70bd 0039 04bd
000003e0: 11c4 8d3d 9643 b13d e226 a43d 3d02 683d
000003f0: 6424 cfbc 231d 05bd a6d0 103d d531 d73d

model.6.weight f4 [40, 256]
-0.065863 0.009349706 0.038101006 -0.027276874 -0.06965921 -0.05175922 0.05845306 -0.08888065
-0.002922766 0.04011871 -0.045045942 -0.00061041885 -0.06277271 -0.008961227 -0.09822118 -0.037930418
0.031183617 -0.06779165 -0.011679583 0.029052427 -0.047983542 -0.03144718 -0.019141568 -0.0050664544
-0.04022845 -0.08652707 -0.023522696 -0.086330764 0.041985102 0.0019544736 0.03801371 -0.021607183
-0.03490728 -0.079834394 -0.08233568 0.007451214 -0.08643835 -0.043801557 0.010513477 -0.0054402812
-0.022323115 -0.057899028 0.043774407 0.049828254 -0.047764532 -0.010500261 -0.06144629 0.006571559
0.009800031 0.011131823 -0.0123401135 -0.10218854 -0.08062761 0.0462692 0.010930886 0.0070452094
0.04312297 -0.049840327 -0.028533973 0.006752529 0.026181623 -0.09434555 -0.02388202 -0.045385495
0.012042324 -0.043103088 -0.103345305 -0.05286365 0.015388079 0.014115077 0.03864807 0.0038957163
-0.093490176 -0.0059580756 -0.078517646 -0.0012818201 -0.03283809 0.058706686 0.062260628 -0.06111823
0.028490443 -0.03691566 -0.0772504 -0.098085865 -0.045428857 -0.013398811 -0.05769112 0.046326432
0.0155398995 -0.050071117 0.0009360039 0.00643724 -0.064008564 0.03946179 -0.03308899 -0.030739577
-0.10856837 -0.037182953 -0.06995532 -0.04631643 -0.04853174 -0.030367292 -0.0052287485 0.022543404
-0.10145271 -0.033476174 -0.06864432 -0.06397674 0.0031428568 0.0060506314 -0.02008102 -0.02116431
-0.037227713 0.026418671 -0.054857984 0.0059540835 0.05661635 0.0040857415 -0.06513078 0.023644965
-0.061403435 0.027667847 -0.04393229 0.05244007 -0.09490682 0.026506022 0.014857478 -0.09163039
0.044896178 -0.006544605 -0.025961913 -0.05259669 0.003812688 -0.006207995 -0.04672485 -0.008975036
0.040920112 0.02889237 0.046179533 -0.06751529 -0.036326624 0.014262452 0.043424647 -0.10467274
-0.031999283 0.03251306 0.05105873 0.0544423 -0.029820412 0.04309783 0.06146604 -0.040308654
0.019635227 -0.047009908 0.0015175939 -0.07643301 -0.045068875 0.00017455555 -0.05453062 -0.028365701
-0.043855365 -0.030466828 -0.026427686 -0.056852967 -0.038981132 0.032946713 -0.08167568 -0.019715691
0.05992212 -0.059315693 -0.02381878 0.04066915 -0.052238625 0.049308624 -0.04736885 -0.09139279
-0.105556466 -0.08419854 -0.045659266 -0.010236628 0.040728755 0.009415384 -0.09140344 -0.051392965
-0.030219683 -0.047245905 0.053706147 -0.05743477 -0.094508484 -0.028886218 -0.09926843 -0.010880388
0.044120938 -0.07979648 -0.0059167934 -0.04614107 -0.07203791 0.010824223 -0.056377403 -0.104358666
0.035502985 -0.019655012 -0.046372525 -0.039497454 -0.006777163 -0.03963966 -0.06443194 -0.039806053
-0.0011645928 -0.05958402 0.048366982 -0.065088995 0.008379635 -0.065409236 -0.09308875 -0.004926582
0.060536325 -0.011369042 -0.038894646 0.041529194 -0.09041376 -0.07629027 -0.01026472 -0.043598637
0.029668793 -0.022126451 0.002649743 -0.05387396 0.043950163 0.018181218 -0.02146279 -0.024241162
-0.04494876 -0.03966125 -0.0030400113 -0.052453913 -0.0021194473 -0.05329675 0.043443955 -0.079808064
-0.107389234 -0.043122336 -0.056560062 -0.0070173703 -0.005467307 -0.0054678097 0.008397043 0.020767994
-0.09923947 -0.08049087 -0.024825677 -0.048575733 -0.026169807 0.025518363 -0.046116814 -0.060508918
00000000: 2ee3 86bd 822f 193c cd0f 1c3d c073 dfbc
00000010: 7da9 8ebd 7a01 54bd 7a6c 6f3d 0f07 b6bd
00000020: e08b 3fbb 8453 243d 1882 38bd 8404 20ba
00000030: fb8e 80bd 1cd2 12bc 3028 c9bd ed5c 1bbd
00000040: c974 ff3c 59d6 8abd b95b 3fbc 5bff ed3c
00000050: 648a 44bd c2ce 00bd c7ce 9cbc 8004 a6bb
00000060: 96c6 24bd 1b35 b1bd abb2 c0bc 2fce b0bd
00000070: 92f8 2b3d a016 003b 44b4 1b3d 8c01 b1bc
00000080: f0fa 0ebd 3780 a3bd 9c9f a8bd 5029 f43b
00000090: 9706 b1bd 4369 33bd b840 2c3c 6344 b2bb
000000a0: f7de b6bc 8827 6dbd cb4c 333d b618 4c3d
000000b0: bea4 43bd 4909 2cbc 1baf 7bbd 3b56 d73b
000000c0: 4f90 203c 4062 363c 302e 4abc 3a48 d1bd
000000d0: 1720 a5bd c684 3d3d 7517 333c 80db e63b
000000e0: b6a1 303d 5f25 4cbd 14c0 e9bc 5244 dd3b
000000f0: d87a d63c 3d38 c1bd 3aa4 c3bc 24e6 39bd
00000100: 2b4d 453c dd8c 30bd b4a6 d3bd 8e87 58bd
00000110: 481e 7c3c ed42 673c 704d 1e3d 464f 7f3b
00000120: c777 bfbd f63b c3bb dccd a0bd bf02 a8ba
00000130: 3c81 06bd 6c76 703d 0005 7f3d 1c57 7abd
00000140: ca64 e93c e034 17bd 7535 9ebd 3ee1 c8bd
00000150: 9c13 3abd b086 5bbc 864d 6cbd c9c0 3d3d
00000160: 109b 7e3c 5f17 4dbd 295e 753a 7cef d23b
00000170: ec16 83bd b0a2 213d 5288 07bd 91d1 fbbc
00000180: 1859 debd 274d 18bd bc44 8fbd 4cb6 3dbd
00000190: 38c9 46bd d4c4 f8bc ec55 abbb f2ac b83c
000001a0: 70c6 cfbd 501e 09bd 6595 8cbd 3d06 83bd
000001b0: 63f8 4d3b 6044 c63b f480 a4bc c660 adbc
000001c0: 167c 18bd f86b d83c c4b2 60bd 791a c33b
000001d0: 8ce6 673d afe1 853b 4963 85bd 16b3 c13c
000001e0: 2b82 7bbd aea7 e23c 58f2 33bd 66cb 563d
000001f0: 825e c2bd 2823 d93c c86c 733c b7a8 bbbd
00000200: 0ee5 373d 2074 d6bb 14ae d4bc a06f 57bd
00000210: 4ade 793b 706c cbbb 8e62 3fbd 080c 13bc
00000220: d99b 273d b1af ec3c c026 3d3d 7545 8abd
00000230: 3acb 14bd 0fad 693c 0bde 313d a95e d6bd
00000240: ae11 03bd 6a2c 053d f522 513d e4fe 5e3d
00000250: f049 f4bc 5a87 303d d0c3 7b3d b01a 25bd
00000260: 0eda a03c 768d 40bd 00ea c63a e988 9cbd
00000270: 249a 38bd e608 3739 805b 5fbd 305f e8bc
00000280: afa1 33bd 9295 f9bc e07e d8bc a8de 68bd
00000290: aeaa 1fbd 22f3 063d 9445 a7bd cd82 a1bc
000002a0: e670 753d 03f5 72bd 9a1f c3bc b294 263d
000002b0: 2bf8 55bd d7f7 493d d705 42bd 252c bbbd
000002c0: fd2d d8bd 4970 acbd 3605 3bbd 88b7 27bc
000002d0: 32d3 263d fc42 1a3c ba31 bbbd 6e81 52bd
000002e0: 458f f7bc ec84 41bd fafa 5b3d b940 6bbd
000002f0: aa8d c1bd caa2 ecbc 3f4d cbbd a843 32bc
00000300: 28b8 343d 566c a3bd a9e1 c1bb 6bfe 3cbd
00000310: 9d88 93bd 1558 313c feeb 66bd ffb9 d5bd
00000320: 946b 113d 8c03 a1bc 1ef1 3dbd 15c8 21bd
00000330: f712 debb 325d 22bd e5f4 83bd ac0b 23bd
00000340: 40a5 98ba 600e 74bd 751c 463d 614d 85bd
00000350: bd4a 093c 47f5 85bd 51a5 bebd 2a6f a1bb
00000360: f0f4 773d 3845 3abc fe4f 1fbd 841a 2a3d
00000370: d92a b9bd 133e 9cbd 5b2d 28bc 7c94 32bd
00000380: f80b f33c 8842 b5bc 50a7 2d3b f1aa 5cbd
00000390: 1605 343d c7f0 943c bcd2 afbc 6795 c6bc
000003a0: 311c 38bd d673 22bd ed3a 47bb ead9 56bd
000003b0: 6de6 0abb b14d 5abd 4af2 313d 6972 a3bd
000003c0: e3ee dbbd 0ca1 30bd 86ab 67bd f8f1 e5bb
000003d0: 1827 b3bb 502b b3bb c093 093c a421 aa3c
000003e0: 103e cbbd 66d8 a4bd 385f cbbc 59f7 46bd
000003f0: 1062 d6bc e30b d13c fce4 3cbd 33d8 77bd

model.6.bias f4 [40]
-0.020695932 0.013534392 -0.07119896 0.0002540412 -0.0686041 -0.039773524 -0.026795713 -0.086413376
-0.0748013 -0.053085063 -0.040608425 0.02751318 -0.060554132 -0.024997965 0.01837113 0.02065288
0.023616064 -0.06994898 -0.047288522 0.020654486 0.0042245053 -0.015373914 -0.015073762 -0.035100594
-0.0680402 0.028604368 -0.05243761 0.010713296 -0.056250233 -0.056844793 0.019900575 -0.019133244
-0.033317436 0.031690285 0.0009928693 0.030254332 -0.024597777 -0.05004214 -0.07389185 0.022312855
00000000: 848a a9bc 5bbf 5d3c c3d0 91bd d530 8539
00000010: 4e80 8cbd 90e9 22bd af82 dbbc 7ff9 b0bd
00000020: 6d31 99bd b96f 59bd 0555 26bd 5263 e13c
00000030: 9c07 78bd 88c8 ccbc 0d7f 963c 3b30 a93c
00000040: 7a76 c13c 6941 8fbd 9cb1 41bd 9933 a93c
00000050: b86d 8a3b dee2 7bbc f1f7 76bc a4c5 0fbd
00000060: a958 8bbd b553 ea3c d2c8 56bd d286 2f3c
00000070: a566 66bd 16d6 68bd 8806 a33c 52bd 9cbc
00000080: dd77 08bd accd 013d 2a23 823a efd7 f73c
00000090: 4781 c9bc fdf8 4cbd 9c54 97bd 73c9 b63c
